…
 device /job:localhost/replica:0/task:0/device:GPU:0 with 43614 MB memory:  -> device: 0, name: NVIDIA A40, pci bus id: 0000:81:00.0, compute capability: 8.6\\n\"\n+     ]\n+    },\n+    {\n+     \"name\": \"stdout\",\n+     \"output_type\": \"stream\",\n+     \"text\": [\n+      \"Model: \\\"sequential\\\"\\n\",\n+      \"_________________________________________________________________\\n\",\n+      \"Layer (type)                 Output Shape              Param #   \\n\",\n+      \"=================================================================\\n\",\n+      \"reshape (Reshape)            (None, 500, 1)            0         \\n\",\n+      \"_________________________________________________________________\\n\",\n+      \"gaussian_noise (GaussianNois (None, 500, 1)            0         \\n\",\n+      \"_________________________________________________________________\\n\",\n+      \"conv1d (Conv1D)              (None, 500, 13)           52        \\n\",\n+      \"_________________________________________________________________\\n\",\n+      \"max_pooling1d (MaxPooling1D) (None, 250, 13)           0         \\n\",\n+      \"_________________________________________________________________\\n\",\n+      \"spatial_dropout1d (SpatialDr (None, 250, 13)           0         \\n\",\n+      \"_________________________________________________________________\\n\",\n+      \"batch_normalization (BatchNo (None, 250, 13)           52        \\n\",\n+      \"_________________________________________________________________\\n\",\n+      \"conv1d_1 (Conv1D)            (None, 250, 118)          23128     \\n\",\n+      \"_________________________________________________________________\\n\",\n+      \"max_pooling1d_1 (MaxPooling1 (None, 250, 118)          0         \\n\",\n+      \"_________________________________________________________________\\n\",\n+      \"spatial_dropout1d_1 (Spatial (None, 250, 118)          0         \\n\",\n+      \"_________________________________________________________________\\n\",\n+      \"batch_normalization_1 (Batch (None, 250, 118)          472       \\n\",\n+      \"_________________________________________________________________\\n\",\n+      \"conv1d_2 (Conv1D)            (None, 250, 100)          59100     \\n\",\n+      \"_________________________________________________________________\\n\",\n+      \"max_pooling1d_2 (MaxPooling1 (None, 62, 100)           0         \\n\",\n+      \"_________________________________________________________________\\n\",\n+      \"batch_normalization_2 (Batch (None, 62, 100)           400       \\n\",\n+      \"_________________________________________________________________\\n\",\n+      \"spatial_dropout1d_2 (Spatial (None, 62, 100)           0         \\n\",\n+      \"_________________________________________________________________\\n\",\n+      \"flatten (Flatten)            (None, 6200)              0         \\n\",\n+      \"_________________________________________________________________\\n\",\n+      \"dense (Dense)                (None, 224)               1389024   \\n\",\n+      \"_________________________________________________________________\\n\",\n+      \"dense_1 (Dense)              (None, 4)                 900       \\n\",\n+      \"=================================================================\\n\",\n+      \"Total params: 1,473,128\\n\",\n+      \"Trainable params: 1,472,666\\n\",\n+      \"Non-trainable params: 462\\n\",\n+      \"_________________________________________________________________\\n\",\n+      \"Epoch 1/15\\n\"\n+     ]\n+    },\n+    {\n+     \"name\": \"stderr\",\n+     \"output
…
df5-a5a5ab640d0d\",\n    \"metadata\": {},\n-   \"outputs\": [\n-    {\n-     \"name\": \"stdout\",\n-     \"output_type\": \"stream\",\n-     \"text\": [\n-      \"INFO:tensorflow:Reloading Oracle from existing project ./hyperparam_tuning_testing_3convs/oracle.json\\n\",\n-      \"Model: \\\"sequential\\\"\\n\",\n-      \"_________________________________________________________________\\n\",\n-      \"Layer (type)                 Output Shape              Param #   \\n\",\n-      \"=================================================================\\n\",\n-      \"reshape (Reshape)            (None, 500, 1)            0         \\n\",\n-      \"_________________________________________________________________\\n\",\n-      \"gaussian_noise (GaussianNois (None, 500, 1)            0         \\n\",\n-      \"_________________________________________________________________\\n\",\n-      \"conv1d (Conv1D)              (None, 500, 3)            6         \\n\",\n-      \"_________________________________________________________________\\n\",\n-      \"max_pooling1d (MaxPooling1D) (None, 500, 3)            0         \\n\",\n-      \"_________________________________________________________________\\n\",\n-      \"batch_normalization (BatchNo (None, 500, 3)            12        \\n\",\n-      \"_________________________________________________________________\\n\",\n-      \"conv1d_1 (Conv1D)            (None, 500, 3)            12        \\n\",\n-      \"_________________________________________________________________\\n\",\n-      \"max_pooling1d_1 (MaxPooling1 (None, 500, 3)            0         \\n\",\n-      \"_________________________________________________________________\\n\",\n-      \"batch_normalization_1 (Batch (None, 500, 3)            12        \\n\",\n-      \"_________________________________________________________________\\n\",\n-      \"conv1d_2 (Conv1D)            (None, 500, 3)            12        \\n\",\n-      \"_________________________________________________________________\\n\",\n-      \"max_pooling1d_2 (MaxPooling1 (None, 500, 3)            0         \\n\",\n-      \"_________________________________________________________________\\n\",\n-      \"batch_normalization_2 (Batch (None, 500, 3)            12        \\n\",\n-      \"_________________________________________________________________\\n\",\n-      \"dropout (Dropout)            (None, 500, 3)            0         \\n\",\n-      \"_________________________________________________________________\\n\",\n-      \"flatten (Flatten)            (None, 1500)              0         \\n\",\n-      \"_________________________________________________________________\\n\",\n-      \"dense (Dense)                (None, 32)                48032     \\n\",\n-      \"_________________________________________________________________\\n\",\n-      \"dense_1 (Dense)              (None, 4)                 132       \\n\",\n-      \"=================================================================\\n\",\n-      \"Total params: 48,230\\n\",\n-      \"Trainable params: 48,212\\n\",\n-      \"Non-trainable params: 18\\n\",\n-      \"_________________________________________________________________\\n\",\n-      \"INFO:tensorflow:Reloading Tuner from ./hyperparam_tuning_testing_3convs/tuner0.json\\n\"\n-  
…
ell_type\": \"code\",\n-   \"execution_count\": 8,\n+   \"execution_count\": null,\n    \"id\": \"36ca9e2d-ef5a-45db-ad7a-83d676246a65\",\n    \"metadata\": {},\n-   \"outputs\": [\n-    {\n-     \"name\": \"stdout\",\n-     \"output_type\": \"stream\",\n-     \"text\": [\n-      \"Model: \\\"sequential\\\"\\n\",\n-      \"_________________________________________________________________\\n\",\n-      \"Layer (type)                 Output Shape              Param #   \\n\",\n-      \"=================================================================\\n\",\n-      \"reshape (Reshape)            (None, 500, 1)            0         \\n\",\n-      \"_________________________________________________________________\\n\",\n-      \"gaussian_noise (GaussianNois (None, 500, 1)            0         \\n\",\n-      \"_________________________________________________________________\\n\",\n-      \"conv1d (Conv1D)              (None, 498, 13)           52        \\n\",\n-      \"_________________________________________________________________\\n\",\n-      \"max_pooling1d (MaxPooling1D) (None, 249, 13)           0         \\n\",\n-      \"_________________________________________________________________\\n\",\n-      \"batch_normalization (BatchNo (None, 249, 13)           52        \\n\",\n-      \"_________________________________________________________________\\n\",\n-      \"conv1d_1 (Conv1D)            (None, 235, 118)          23128     \\n\",\n-      \"_________________________________________________________________\\n\",\n-      \"max_pooling1d_1 (MaxPooling1 (None, 235, 118)          0         \\n\",\n-      \"_________________________________________________________________\\n\",\n-      \"batch_normalization_1 (Batch (None, 235, 118)          472       \\n\",\n-      \"_________________________________________________________________\\n\",\n-      \"conv1d_2 (Conv1D)            (None, 221, 118)          208978    \\n\",\n-      \"_________________________________________________________________\\n\",\n-      \"max_pooling1d_2 (MaxPooling1 (None, 55, 118)           0         \\n\",\n-      \"_________________________________________________________________\\n\",\n-      \"batch_normalization_2 (Batch (None, 55, 118)           472       \\n\",\n-      \"_________________________________________________________________\\n\",\n-      \"dropout (Dropout)            (None, 55, 118)           0         \\n\",\n-      \"_________________________________________________________________\\n\",\n-      \"flatten (Flatten)            (None, 6490)              0         \\n\",\n-      \"_________________________________________________________________\\n\",\n-      \"dense (Dense)                (None, 224)               1453984   \\n\",\n-      \"_________________________________________________________________\\n\",\n-      \"dense_1 (Dense)              (None, 4)                 900       \\n\",\n-      \"=================================================================\\n\",\n-      \"Total params: 1,688,038\\n\",\n-      \"Trainable params: 1,687,540\\n\",\n-      \"Non-trainable params: 498\\n\",\n-      \"_________________________________________________________________\\n\",\n-      \"Successfully loaded test data from folder /project/ag-weinfurter/crypto/PhDs/Adomas/Em
…
