…
   \"Successfully loaded data from folder /project/ag-weinfurter/crypto/PhDs/Adomas/EmissionSecurityMeasuredData/DataForEmSecPaper/Rev130meas2.5cm/FPGA2.5cm\\n\",\n-      \"Cut data in pieces with these shapes: after header:(41976, 500), before header:(17986, 500)\\n\",\n-      \"Model: \\\"sequential_6\\\"\\n\",\n-      \"_________________________________________________________________\\n\",\n-      \"Layer (type)                 Output Shape              Param #   \\n\",\n-      \"=================================================================\\n\",\n-      \"reshape_6 (Reshape)          (None, 500, 1)            0         \\n\",\n-      \"_________________________________________________________________\\n\",\n-      \"gaussian_noise_6 (GaussianNo (None, 500, 1)            0         \\n\",\n-      \"_________________________________________________________________\\n\",\n-      \"conv1d_18 (Conv1D)           (None, 500, 13)           52        \\n\",\n-      \"_________________________________________________________________\\n\",\n-      \"max_pooling1d_18 (MaxPooling (None, 250, 13)           0         \\n\",\n-      \"_________________________________________________________________\\n\",\n-      \"spatial_dropout1d_18 (Spatia (None, 250, 13)           0         \\n\",\n-      \"_________________________________________________________________\\n\",\n-      \"batch_normalization_18 (Batc (None, 250, 13)           52        \\n\",\n-      \"_________________________________________________________________\\n\",\n-      \"conv1d_19 (Conv1D)           (None, 250, 118)          23128     \\n\",\n-      \"_________________________________________________________________\\n\",\n-      \"max_pooling1d_19 (MaxPooling (None, 250, 118)          0         \\n\",\n-      \"_________________________________________________________________\\n\",\n-      \"spatial_dropout1d_19 (Spatia (None, 250, 118)          0         \\n\",\n-      \"_________________________________________________________________\\n\",\n-      \"batch_normalization_19 (Batc (None, 250, 118)          472       \\n\",\n-      \"_________________________________________________________________\\n\",\n-      \"conv1d_20 (Conv1D)           (None, 250, 100)          59100     \\n\",\n-      \"_________________________________________________________________\\n\",\n-      \"max_pooling1d_20 (MaxPooling (None, 62, 100)           0         \\n\",\n-      \"_________________________________________________________________\\n\",\n-      \"batch_normalization_20 (Batc (None, 62, 100)           400       \\n\",\n-      \"_________________________________________________________________\\n\",\n-      \"spatial_dropout1d_20 (Spatia (None, 62, 100)           0         \\n\",\n-      \"_________________________________________________________________\\n\",\n-      \"flatten_6 (Flatten)          (None, 6200)              0         \\n\",\n-      \"_________________________________________________________________\\n\",\n-      \"dense_12 (Dense)             (None, 224)               1389024   \\n\",\n-      \"_________________________________________________________________\\n\",\n-      \"dense_13 (Dense)             (None, 4)                 900       \\n\",\n-      \"=================================================================\\n\",\n-      \"Total params: 1,473,128\\n\",\n-      \"Trainable params: 1,472,666\\n\",\n-      \"Non-trainable params: 462\\n\",\n-      \"_________________________________________________________________\\n\",\n-      \"Epoch 1/10\\n\",\n-      \"3280/3280 [==============================] - 33s 10ms/step 
…
2.5cm\\n\",\n-      \"Cut data in pieces with these shapes: after header:(41976, 500), before header:(17987, 500)\\n\",\n-      \"Model: \\\"sequential_9\\\"\\n\",\n+      \"Cut data in pieces with these shapes: after header:(13992, 500), before header:(5996, 500)\\n\",\n+      \"Model: \\\"sequential_6\\\"\\n\",\n       \"_________________________________________________________________\\n\",\n       \"Layer (type)                 Output Shape              Param #   \\n\",\n       \"=================================================================\\n\",\n-      \"reshape_9 (Reshape)          (None, 500, 1)            0         \\n\",\n+      \"reshape_6 (Reshape)          (None, 500, 1)            0         \\n\",\n       \"_________________________________________________________________\\n\",\n-      \"gaussian_noise_9 (GaussianNo (None, 500, 1)            0         \\n\",\n+      \"gaussian_noise_6 (GaussianNo (None, 500, 1)            0         \\n\",\n       \"_________________________________________________________________\\n\",\n-      \"conv1d_27 (Conv1D)           (None, 500, 13)           52        \\n\",\n+      \"conv1d_18 (Conv1D)           (None, 500, 13)           52        \\n\",\n       \"_________________________________________________________________\\n\",\n-      \"max_pooling1d_27 (MaxPooling (None, 250, 13)           0         \\n\",\n+      \"max_pooling1d_18 (MaxPooling (None, 250, 13)           0         \\n\",\n       \"_________________________________________________________________\\n\",\n-      \"spatial_dropout1d_27 (Spatia (None, 250, 13)           0         \\n\",\n+      \"spatial_dropout1d_18 (Spatia (None, 250, 13)           0         \\n\",\n       \"_________________________________________________________________\\n\",\n-      \"batch_normalization_27 (Batc (None, 250, 13)           52        \\n\",\n+      \"batch_normalization_18 (Batc (None, 250, 13)           52        \\n\",\n       \"_________________________________________________________________\\n\",\n-      \"conv1d_28 (Conv1D)           (None, 250, 118)          23128     \\n\",\n+      \"conv1d_19 (Conv1D)           (None, 250, 118)          23128     \\n\",\n       \"_________________________________________________________________\\n\",\n-      \"max_pooling1d_28 (MaxPooling (None, 250, 118)          0         \\n\",\n+      \"max_pooling1d_19 (MaxPooling (None, 250, 118)          0         \\n\",\n       \"_________________________________________________________________\\n\",\n-      \"spatial_dropout1d_28 (Spatia (None, 250, 118)          0         \\n\",\n+      \"spatial_dropout1d_19 (Spatia (None, 250, 118)          0         \\n\",\n       \"_________________________________________________________________\\n\",\n-      \"batch_normalization_28 (Batc (None, 250, 118)          472       \\n\",\n+      \"batch_normalization_19 (Batc (None, 250, 118)          472       \\n\",\n       \"_________________________________________________________________\\n\",\n-      \"conv1d_29 (Conv1D)           (None, 250, 100)          59100     \\n\",\n+      \"conv1d_20 (Conv1D)           (None, 250, 100)          59100     \\n\",\n       \"_________________________________________________________________\\n\",\n-      \"max_pooling1d_29 (MaxPooling (None, 62, 100)           0         \\n\",\n+      \"max_pooling1d_20 (MaxPooling (None, 62, 100)           0         \\n\",\n       \"_________________________________________________________________\\n\",\n-      \"batch_normalization_29 (Batc (None, 62, 100)           400       \\n\",\n+      \"batch_normalization_20 (Batc (None, 62, 100)           400       \\n\",\n       \"_________________________________________________________________\\n\",\n-      \"spatial_dropout1d_29 (Spatia (None, 62, 100)           0         \\n\",\n+      \"spatial_dropout1d_20 (Spatia (None, 62, 100)           0         \\n\",\n       \"_________________________________________________________________\\n\",\n-      \"flatten_9 (Flatten)          (None, 6200)              0         \\n\",\n+      \"flatten_6 (Flatten)          (None, 6200)              0         \\n\",\n       \"_________________________________________________________________\\n\",\n-      \"dense_18 (Dense)             (None, 224)               1389024   \\n\",\n+      \"dense_12 (Dense)             (None, 224)               1389024   \\n\",\n       \"_________________________________________________________________\\n\",\n-      \"dense_19 (Dense)             (None, 4)                 900       \\n\",\n+      \"dense_13 (Dense)             (None, 4)                 900       \\n\",\n       \"=================================================================\\n\",\n       \"Total params: 1,473,128\\n\",\n       \"Trainable params: 1,472,666\\n\",\n       \"Non-trainable params: 462\\n\",\n       \"_________________________________________________________________\\n\",\n       \"Epoch 1/10\\n\",\n-      \"4685/4685 [==============================] - 47s 10ms/step 
…
