…
yMeasuredData/DataForEmSecPaper/Rev1AntennaAB4m/WithShielding4m/random_labels_A.txt is not a csv file measured by Lecroy Oscilloscope.\\n\",\n-      \"Prepared validation data with size (3982, 10000)\\n\",\n-      \"Prepared training data with size (115424, 10000)\\n\",\n-      \"Model: \\\"sequential_1\\\"\\n\",\n-      \"_________________________________________________________________\\n\",\n-      \"Layer (type)                 Output Shape              Param #   \\n\",\n-      \"=================================================================\\n\",\n-      \"reshape_1 (Reshape)          (None, 10000, 1)          0         \\n\",\n-      \"_________________________________________________________________\\n\",\n-      \"gaussian_noise_1 (GaussianNo (None, 10000, 1)          0         \\n\",\n-      \"_________________________________________________________________\\n\",\n-      \"conv1d_3 (Conv1D)            (None, 10000, 13)         52        \\n\",\n-      \"_________________________________________________________________\\n\",\n-      \"max_pooling1d_3 (MaxPooling1 (None, 5000, 13)          0         \\n\",\n-      \"_________________________________________________________________\\n\",\n-      \"spatial_dropout1d_3 (Spatial (None, 5000, 13)          0         \\n\",\n-      \"_________________________________________________________________\\n\",\n-      \"batch_normalization_3 (Batch (None, 5000, 13)          52        \\n\",\n-      \"_________________________________________________________________\\n\",\n-      \"conv1d_4 (Conv1D)            (None, 5000, 118)         23128     \\n\",\n-      \"_________________________________________________________________\\n\",\n-      \"max_pooling1d_4 (MaxPooling1 (None, 5000, 118)         0         \\n\",\n-      \"_________________________________________________________________\\n\",\n-      \"spatial_dropout1d_4 (Spatial (None, 5000, 118)         0         \\n\",\n-      \"_________________________________________________________________\\n\",\n-      \"batch_normalization_4 (Batch (None, 5000, 118)         472       \\n\",\n-      \"_________________________________________________________________\\n\",\n-      \"conv1d_5 (Conv1D)            (None, 5000, 100)         59100     \\n\",\n-      \"_________________________________________________________________\\n\",\n-      \"max_pooling1d_5 (MaxPooling1 (None, 1250, 100)         0         \\n\",\n-      \"_________________________________________________________________\\n\",\n-      \"batch_normalization_5 (Batch (None, 1250, 100)         400       \\n\",\n-      \"_________________________________________________________________\\n\",\n-      \"spatial_dropout1d_5 (Spatial (None, 1250, 100)         0         \\n\",\n-      \"_________________________________________________________________\\n\",\n-      \"flatten_1 (Flatten)          (None, 125000)            0         \\n\",\n-      \"_________________________________________________________________\\n\",\n-      \"dense_2 (Dense)              (None, 128)               16000128  \\n\",\n-      \"_________________________________________________________________\\n\",\n-      \"dense_3 (Dense)              (None, 2)                 258       \\n\",\n-      \"=================================================================\\n\",\n-      \"Total params: 16,083,590\\n\",\n-      \"Trainable params: 16,083,128\\n\",\n-      \"Non-trainable params: 462\\n\",\n-      \"_________________________________________________________________\\n\",\n-      \"Epoch 1/5\\n\",\n-      \"   6/1804 [..............................] - ETA: 2:02 - l
…
      \"Successfully loaded data from folder /project/ag-weinfurter/crypto/PhDs/Adomas/EmissionSecurityMeasuredData/DataForEmSecPaper/Rev22D/2d_0.000_1.000\\n\",\n+      \"Cut data in pieces with these shapes: after header:(155023, 500), before header:(64834, 500)\\n\",\n+      \"Model: \\\"sequential_1\\\"\\n\",\n+      \"_________________________________________________________________\\n\",\n+      \"Layer (type)                 Output Shape              Param #   \\n\",\n+      \"=================================================================\\n\",\n+      \"reshape_1 (Reshape)          (None, 500, 1)            0         \\n\",\n+      \"_________________________________________________________________\\n\",\n+      \"gaussian_noise_1 (GaussianNo (None, 500, 1)            0         \\n\",\n+      \"_________________________________________________________________\\n\",\n+      \"conv1d_3 (Conv1D)            (None, 500, 13)           52        \\n\",\n+      \"_________________________________________________________________\\n\",\n+      \"max_pooling1d_3 (MaxPooling1 (None, 250, 13)           0         \\n\",\n+      \"_________________________________________________________________\\n\",\n+      \"spatial_dropout1d_3 (Spatial (None, 250, 13)           0         \\n\",\n+      \"_________________________________________________________________\\n\",\n+      \"batch_normalization_3 (Batch (None, 250, 13)           52        \\n\",\n+      \"_________________________________________________________________\\n\",\n+      \"conv1d_4 (Conv1D)            (None, 250, 118)          23128     \\n\",\n+      \"_________________________________________________________________\\n\",\n+      \"max_pooling1d_4 (MaxPooling1 (None, 250, 118)          0         \\n\",\n+      \"_________________________________________________________________\\n\",\n+      \"spatial_dropout1d_4 (Spatial (None, 250, 118)          0         \\n\",\n+      \"_________________________________________________________________\\n\",\n+      \"batch_normalization_4 (Batch (None, 250, 118)          472       \\n\",\n+      \"_________________________________________________________________\\n\",\n+      \"conv1d_5 (Conv1D)            (None, 250, 100)          59100     \\n\",\n+      \"_________________________________________________________________\\n\",\n+      \"max_pooling1d_5 (MaxPooling1 (None, 62, 100)           0         \\n\",\n+      \"_________________________________________________________________\\n\",\n+      \"batch_normalization_5 (Batch (None, 62, 100)           400       \\n\",\n+      \"_________________________________________________________________\\n\",\n+      \"spatial_dropout1d_5 (Spatial (None, 62, 100)           0         \\n\",\n+      \"_________________________________________________________________\\n\",\n+      \"flatten_1 (Flatten)          (None, 6200)              0         \\n\",\n+      \"_________________________________________________________________\\n\",\n+      \"dense_2 (Dense)              (None, 224)               1389024   \\n\",\n+      \"_________________________________________________________________\\n\",\n+      \"dense_3 (Dense)              (None, 4)                 900       \\n\",\n+      \"=================================================================\\n\",\n+      \"Total params: 1,473,128\\n\",\n+      \"Trainable params: 1,472,666\\n\",\n+      \"Non-trainable params: 462\\n\",\n+      \"_________________________________________________________________\\n\",\n+      \"Epoch 1/20\\n\",\n+      \"10306/10306 [==============================] - 99s 9ms/step
…
