…
     \"Successfully loaded data from folder /project/ag-weinfurter/crypto/PhDs/Adomas/EmissionSecurityMeasuredData/DataForEmSecPaper/Rev1Rotation10deg/10deg\\n\",\n+      \"Cut data in pieces with these shapes: after header:(98665, 500), before header:(41244, 500)\\n\",\n+      \"Model: \\\"sequential_1\\\"\\n\",\n+      \"_________________________________________________________________\\n\",\n+      \"Layer (type)                 Output Shape              Param #   \\n\",\n+      \"=================================================================\\n\",\n+      \"reshape_1 (Reshape)          (None, 500, 1)            0         \\n\",\n+      \"_________________________________________________________________\\n\",\n+      \"gaussian_noise_1 (GaussianNo (None, 500, 1)            0         \\n\",\n+      \"_________________________________________________________________\\n\",\n+      \"conv1d_3 (Conv1D)            (None, 500, 13)           52        \\n\",\n+      \"_________________________________________________________________\\n\",\n+      \"max_pooling1d_3 (MaxPooling1 (None, 250, 13)           0         \\n\",\n+      \"_________________________________________________________________\\n\",\n+      \"spatial_dropout1d_3 (Spatial (None, 250, 13)           0         \\n\",\n+      \"_________________________________________________________________\\n\",\n+      \"batch_normalization_3 (Batch (None, 250, 13)           52        \\n\",\n+      \"_________________________________________________________________\\n\",\n+      \"conv1d_4 (Conv1D)            (None, 250, 118)          23128     \\n\",\n+      \"_________________________________________________________________\\n\",\n+      \"max_pooling1d_4 (MaxPooling1 (None, 250, 118)          0         \\n\",\n+      \"_________________________________________________________________\\n\",\n+      \"spatial_dropout1d_4 (Spatial (None, 250, 118)          0         \\n\",\n+      \"_________________________________________________________________\\n\",\n+      \"batch_normalization_4 (Batch (None, 250, 118)          472       \\n\",\n+      \"_________________________________________________________________\\n\",\n+      \"conv1d_5 (Conv1D)            (None, 250, 100)          59100     \\n\",\n+      \"_________________________________________________________________\\n\",\n+      \"max_pooling1d_5 (MaxPooling1 (None, 62, 100)           0         \\n\",\n+      \"_________________________________________________________________\\n\",\n+      \"batch_normalization_5 (Batch (None, 62, 100)           400       \\n\",\n+      \"_________________________________________________________________\\n\",\n+      \"spatial_dropout1d_5 (Spatial (None, 62, 100)           0         \\n\",\n+      \"_________________________________________________________________\\n\",\n+      \"flatten_1 (Flatten)          (None, 6200)              0         \\n\",\n+      \"_________________________________________________________________\\n\",\n+      \"dense_2 (Dense)              (None, 224)               1389024   \\n\",\n+      \"_________________________________________________________________\\n\",\n+      \"dense_3 (Dense)              (None, 4)                 900       \\n\",\n+      \"=================================================================\\n\",\n+      \"Total params: 1,473,128\\n\",\n+      \"Trainable params: 1,472,666\\n\",\n+      \"Non-trainable params: 462\\n\",\n+      \"_________________________________________________________________\\n\",\n+      \"Epoch 1/20\\n\",\n+      \"6559/6559 [==============================] - 62s 9ms/step -
…
