…
  \"Successfully loaded data from folder /project/ag-weinfurter/crypto/PhDs/Adomas/EmissionSecurityMeasuredData/DataForEmSecPaper/Rev130meas2.5cm/FPGA2.5cm\\n\",\n-      \"Cut data in pieces with these shapes: after header:(41976, 500), before header:(17986, 500)\\n\",\n-      \"Model: \\\"sequential_12\\\"\\n\",\n-      \"_________________________________________________________________\\n\",\n-      \"Layer (type)                 Output Shape              Param #   \\n\",\n-      \"=================================================================\\n\",\n-      \"reshape_12 (Reshape)         (None, 500, 1)            0         \\n\",\n-      \"_________________________________________________________________\\n\",\n-      \"gaussian_noise_12 (GaussianN (None, 500, 1)            0         \\n\",\n-      \"_________________________________________________________________\\n\",\n-      \"conv1d_36 (Conv1D)           (None, 500, 13)           52        \\n\",\n-      \"_________________________________________________________________\\n\",\n-      \"max_pooling1d_36 (MaxPooling (None, 250, 13)           0         \\n\",\n-      \"_________________________________________________________________\\n\",\n-      \"spatial_dropout1d_36 (Spatia (None, 250, 13)           0         \\n\",\n-      \"_________________________________________________________________\\n\",\n-      \"batch_normalization_36 (Batc (None, 250, 13)           52        \\n\",\n-      \"_________________________________________________________________\\n\",\n-      \"conv1d_37 (Conv1D)           (None, 250, 118)          23128     \\n\",\n-      \"_________________________________________________________________\\n\",\n-      \"max_pooling1d_37 (MaxPooling (None, 250, 118)          0         \\n\",\n-      \"_________________________________________________________________\\n\",\n-      \"spatial_dropout1d_37 (Spatia (None, 250, 118)          0         \\n\",\n-      \"_________________________________________________________________\\n\",\n-      \"batch_normalization_37 (Batc (None, 250, 118)          472       \\n\",\n-      \"_________________________________________________________________\\n\",\n-      \"conv1d_38 (Conv1D)           (None, 250, 100)          59100     \\n\",\n-      \"_________________________________________________________________\\n\",\n-      \"max_pooling1d_38 (MaxPooling (None, 62, 100)           0         \\n\",\n-      \"_________________________________________________________________\\n\",\n-      \"batch_normalization_38 (Batc (None, 62, 100)           400       \\n\",\n-      \"_________________________________________________________________\\n\",\n-      \"spatial_dropout1d_38 (Spatia (None, 62, 100)           0         \\n\",\n-      \"_________________________________________________________________\\n\",\n-      \"flatten_12 (Flatten)         (None, 6200)              0         \\n\",\n-      \"_________________________________________________________________\\n\",\n-      \"dense_24 (Dense)             (None, 224)               1389024   \\n\",\n-      \"_________________________________________________________________\\n\",\n-      \"dense_25 (Dense)             (None, 4)                 900       \\n\",\n-      \"=================================================================\\n\",\n-      \"Total params: 1,473,128\\n\",\n-      \"Trainable params: 1,472,666\\n\",\n-      \"Non-trainable params: 462\\n\",\n-      \"_________________________________________________________________\\n\",\n-      \"Epoch 1/10\\n\",\n-      \"6090/6090 [==============================] - 61s 10ms/step 
…
