…
cached_data_file` on individual files!\\n\",\n+      \"  warnings.warn(\\\"This function is deprecated. Use `load_cached_data_file` on individual files!\\\")\\n\"\n      ]\n     },\n     {\n      \"name\": \"stdout\",\n      \"output_type\": \"stream\",\n      \"text\": [\n-      \"Model: \\\"sequential\\\"\\n\",\n-      \"_________________________________________________________________\\n\",\n-      \"Layer (type)                 Output Shape              Param #   \\n\",\n-      \"=================================================================\\n\",\n-      \"reshape (Reshape)            (None, 10000, 1)          0         \\n\",\n-      \"_________________________________________________________________\\n\",\n-      \"gaussian_noise (GaussianNois (None, 10000, 1)          0         \\n\",\n-      \"_________________________________________________________________\\n\",\n-      \"conv1d (Conv1D)              (None, 10000, 13)         52        \\n\",\n-      \"_________________________________________________________________\\n\",\n-      \"max_pooling1d (MaxPooling1D) (None, 5000, 13)          0         \\n\",\n-      \"_________________________________________________________________\\n\",\n-      \"spatial_dropout1d (SpatialDr (None, 5000, 13)          0         \\n\",\n-      \"_________________________________________________________________\\n\",\n-      \"batch_normalization (BatchNo (None, 5000, 13)          52        \\n\",\n-      \"_________________________________________________________________\\n\",\n-      \"conv1d_1 (Conv1D)            (None, 5000, 118)         23128     \\n\",\n-      \"_________________________________________________________________\\n\",\n-      \"max_pooling1d_1 (MaxPooling1 (None, 5000, 118)         0         \\n\",\n-      \"_________________________________________________________________\\n\",\n-      \"spatial_dropout1d_1 (Spatial (None, 5000, 118)         0         \\n\",\n-      \"_________________________________________________________________\\n\",\n-      \"batch_normalization_1 (Batch (None, 5000, 118)         472       \\n\",\n-      \"_________________________________________________________________\\n\",\n-      \"conv1d_2 (Conv1D)            (None, 5000, 100)         59100     \\n\",\n-      \"_________________________________________________________________\\n\",\n-      \"max_pooling1d_2 (MaxPooling1 (None, 1250, 100)         0         \\n\",\n-      \"_________________________________________________________________\\n\",\n-      \"batch_normalization_2 (Batch (None, 1250, 100)         400       \\n\",\n-      \"_________________________________________________________________\\n\",\n-      \"spatial_dropout1d_2 (Spatial (None, 1250, 100)         0         \\n\",\n-      \"_________________________________________________________________\\n\",\n-      \"flatten (Flatten)            (None, 125000)            0         \\n\",\n-      \"_________________________________________________________________\\n\",\n-      \"dense (Dense)                (None, 128)               16000128  \\n\",\n-      \"_________________________________________________________________\\n\",\n-      \"dense_1 (Dense)              (None, 2)                 258       \\n\",\n-      \"=================================================================\\n\",\n-      \"Total params: 16,083,590\\n\",\n-      \"Trainable params: 16,083,128\\n\",\n-      \"Non-trainable params: 462\\n\",\n-      \"_________________________________________________________________\\n\"\n+      \"Failed to convert csv file train_28_A.txt and save to Numpy file. Error: [Errno 13] P
…
,\n-      \"Successfully loaded data from folder /project/ag-weinfurter/crypto/PhDs/Adomas/EmissionSecurityMeasuredData/DataForEmSecPaper/AirbusDistance/1cm\\n\",\n-      \"Cut data in pieces with these shapes: after header:(42279, 500), before header:(17684, 500)\\n\",\n-      \"Model: \\\"sequential_1\\\"\\n\",\n-      \"_________________________________________________________________\\n\",\n-      \"Layer (type)                 Output Shape              Param #   \\n\",\n-      \"=================================================================\\n\",\n-      \"reshape_1 (Reshape)          (None, 500, 1)            0         \\n\",\n-      \"_________________________________________________________________\\n\",\n-      \"gaussian_noise_1 (GaussianNo (None, 500, 1)            0         \\n\",\n-      \"_________________________________________________________________\\n\",\n-      \"conv1d_3 (Conv1D)            (None, 500, 13)           52        \\n\",\n-      \"_________________________________________________________________\\n\",\n-      \"max_pooling1d_3 (MaxPooling1 (None, 250, 13)           0         \\n\",\n-      \"_________________________________________________________________\\n\",\n-      \"spatial_dropout1d_3 (Spatial (None, 250, 13)           0         \\n\",\n-      \"_________________________________________________________________\\n\",\n-      \"batch_normalization_3 (Batch (None, 250, 13)           52        \\n\",\n-      \"_________________________________________________________________\\n\",\n-      \"conv1d_4 (Conv1D)            (None, 250, 118)          23128     \\n\",\n-      \"_________________________________________________________________\\n\",\n-      \"max_pooling1d_4 (MaxPooling1 (None, 250, 118)          0         \\n\",\n-      \"_________________________________________________________________\\n\",\n-      \"spatial_dropout1d_4 (Spatial (None, 250, 118)          0         \\n\",\n-      \"_________________________________________________________________\\n\",\n-      \"batch_normalization_4 (Batch (None, 250, 118)          472       \\n\",\n-      \"_________________________________________________________________\\n\",\n-      \"conv1d_5 (Conv1D)            (None, 250, 100)          59100     \\n\",\n-      \"_________________________________________________________________\\n\",\n-      \"max_pooling1d_5 (MaxPooling1 (None, 62, 100)           0         \\n\",\n-      \"_________________________________________________________________\\n\",\n-      \"batch_normalization_5 (Batch (None, 62, 100)           400       \\n\",\n-      \"_________________________________________________________________\\n\",\n-      \"spatial_dropout1d_5 (Spatial (None, 62, 100)           0         \\n\",\n-      \"_________________________________________________________________\\n\",\n-      \"flatten_1 (Flatten)          (None, 6200)              0         \\n\",\n-      \"_________________________________________________________________\\n\",\n-      \"dense_2 (Dense)              (None, 224)               1389024   \\n\",\n-      \"_________________________________________________________________\\n\",\n-      \"dense_3 (Dense)              (None, 4)                 900       \\n\",\n-      \"=================================================================\\n\",\n-      \"Total params: 1,473,128\\n\",\n-      \"Trainable params: 1,472,666\\n\",\n-      \"Non-trainable params: 462\\n\",\n-      \"_________________________________________________________________\\n\",\n-      \"Epoch 1/5\\n\",\n-      \"2811/2811 [==============================] - 27s 9ms/step - 
…
