…
 device /job:localhost/replica:0/task:0/device:GPU:0 with 43644 MB memory:  -> device: 0, name: NVIDIA A40, pci bus id: 0000:81:00.0, compute capability: 8.6\\n\"\n-     ]\n-    },\n-    {\n-     \"name\": \"stdout\",\n-     \"output_type\": \"stream\",\n-     \"text\": [\n-      \"Model: \\\"sequential\\\"\\n\",\n-      \"_________________________________________________________________\\n\",\n-      \"Layer (type)                 Output Shape              Param #   \\n\",\n-      \"=================================================================\\n\",\n-      \"reshape (Reshape)            (None, 500, 1)            0         \\n\",\n-      \"_________________________________________________________________\\n\",\n-      \"gaussian_noise (GaussianNois (None, 500, 1)            0         \\n\",\n-      \"_________________________________________________________________\\n\",\n-      \"conv1d (Conv1D)              (None, 500, 13)           52        \\n\",\n-      \"_________________________________________________________________\\n\",\n-      \"max_pooling1d (MaxPooling1D) (None, 250, 13)           0         \\n\",\n-      \"_________________________________________________________________\\n\",\n-      \"spatial_dropout1d (SpatialDr (None, 250, 13)           0         \\n\",\n-      \"_________________________________________________________________\\n\",\n-      \"batch_normalization (BatchNo (None, 250, 13)           52        \\n\",\n-      \"_________________________________________________________________\\n\",\n-      \"conv1d_1 (Conv1D)            (None, 250, 118)          23128     \\n\",\n-      \"_________________________________________________________________\\n\",\n-      \"max_pooling1d_1 (MaxPooling1 (None, 250, 118)          0         \\n\",\n-      \"_________________________________________________________________\\n\",\n-      \"spatial_dropout1d_1 (Spatial (None, 250, 118)          0         \\n\",\n-      \"_________________________________________________________________\\n\",\n-      \"batch_normalization_1 (Batch (None, 250, 118)          472       \\n\",\n-      \"_________________________________________________________________\\n\",\n-      \"conv1d_2 (Conv1D)            (None, 250, 100)          59100     \\n\",\n-      \"_________________________________________________________________\\n\",\n-      \"max_pooling1d_2 (MaxPooling1 (None, 62, 100)           0         \\n\",\n-      \"_________________________________________________________________\\n\",\n-      \"batch_normalization_2 (Batch (None, 62, 100)           400       \\n\",\n-      \"_________________________________________________________________\\n\",\n-      \"spatial_dropout1d_2 (Spatial (None, 62, 100)           0         \\n\",\n-      \"_________________________________________________________________\\n\",\n-      \"flatten (Flatten)            (None, 6200)              0         \\n\",\n-      \"_________________________________________________________________\\n\",\n-      \"dense (Dense)                (None, 224)               1389024   \\n\",\n-      \"_________________________________________________________________\\n\",\n-      \"dense_1 (Dense)              (None, 4)                 900       \\n\",\n-      \"=================================================================\\n\",\n-      \"Total params: 1,473,128\\n\",\n-      \"Trainable params: 1,472,666\\n\",\n-      \"Non-trainable params: 462\\n\",\n-      \"_________________________________________________________________\\n\",\n-      \"Epoch 1/5\\n\"\n-     ]\n-    },\n-    {\n-     \"name\": \"stderr\",\n-     \"output_
…
