…
Successfully loaded data from folder /project/ag-weinfurter/crypto/PhDs/Adomas/EmissionSecurityMeasuredData/DataForEmSecPaper/Rev22Dstart_7_0/2d_7.000_5.000\\n\",\n+      \"Cut data in pieces with these shapes: after header:(42279, 500), before header:(17682, 500)\\n\",\n+      \"Model: \\\"sequential_5\\\"\\n\",\n+      \"_________________________________________________________________\\n\",\n+      \"Layer (type)                 Output Shape              Param #   \\n\",\n+      \"=================================================================\\n\",\n+      \"reshape_5 (Reshape)          (None, 500, 1)            0         \\n\",\n+      \"_________________________________________________________________\\n\",\n+      \"gaussian_noise_5 (GaussianNo (None, 500, 1)            0         \\n\",\n+      \"_________________________________________________________________\\n\",\n+      \"conv1d_15 (Conv1D)           (None, 500, 13)           52        \\n\",\n+      \"_________________________________________________________________\\n\",\n+      \"max_pooling1d_15 (MaxPooling (None, 250, 13)           0         \\n\",\n+      \"_________________________________________________________________\\n\",\n+      \"spatial_dropout1d_15 (Spatia (None, 250, 13)           0         \\n\",\n+      \"_________________________________________________________________\\n\",\n+      \"batch_normalization_15 (Batc (None, 250, 13)           52        \\n\",\n+      \"_________________________________________________________________\\n\",\n+      \"conv1d_16 (Conv1D)           (None, 250, 118)          23128     \\n\",\n+      \"_________________________________________________________________\\n\",\n+      \"max_pooling1d_16 (MaxPooling (None, 250, 118)          0         \\n\",\n+      \"_________________________________________________________________\\n\",\n+      \"spatial_dropout1d_16 (Spatia (None, 250, 118)          0         \\n\",\n+      \"_________________________________________________________________\\n\",\n+      \"batch_normalization_16 (Batc (None, 250, 118)          472       \\n\",\n+      \"_________________________________________________________________\\n\",\n+      \"conv1d_17 (Conv1D)           (None, 250, 100)          59100     \\n\",\n+      \"_________________________________________________________________\\n\",\n+      \"max_pooling1d_17 (MaxPooling (None, 62, 100)           0         \\n\",\n+      \"_________________________________________________________________\\n\",\n+      \"batch_normalization_17 (Batc (None, 62, 100)           400       \\n\",\n+      \"_________________________________________________________________\\n\",\n+      \"spatial_dropout1d_17 (Spatia (None, 62, 100)           0         \\n\",\n+      \"_________________________________________________________________\\n\",\n+      \"flatten_5 (Flatten)          (None, 6200)              0         \\n\",\n+      \"_________________________________________________________________\\n\",\n+      \"dense_10 (Dense)             (None, 224)               1389024   \\n\",\n+      \"_________________________________________________________________\\n\",\n+      \"dense_11 (Dense)             (None, 4)                 900       \\n\",\n+      \"=================================================================\\n\",\n+      \"Total params: 1,473,128\\n\",\n+      \"Trainable params: 1,472,666\\n\",\n+      \"Non-trainable params: 462\\n\",\n+      \"_________________________________________________________________\\n\",\n+      \"Epoch 1/5\\n\",\n+      \"2811/2811 [==============================] - 26s 9ms/step - 
…
